decoder_sdxl.pt (torch, 3263 bytes, 6 tensors)

in_proj.weight f4 [12, 4]
000000 47 c9 b3 3e 0a 8b a4 be f8 97 fa 3a 71 7a c3 bc
       0.351145 -0.32137328 0.0019118777 -0.023862096
000010 e9 20 d0 3d 08 5a d2 bc 9b 0b b5 3e 94 b9 05 bf
       0.10162527 -0.025677696 0.35360417 -0.52236295
000020 3d 4f a0 bd 2e 3c ba 3d 67 1c 77 be af f5 89 3e
       -0.078276135 0.090935096 -0.24131928 0.26945254
000030 9c 6a cb 3d 69 9c 4b 3e 4f 2f 57 be ea 80 c8 be
       0.099324435 0.19883884 -0.2101414 -0.39160854
000040 39 41 78 be e8 15 81 3e 30 bb e9 3d 14 63 e6 3d
       -0.2424363 0.25212026 0.11412656 0.112493664
000050 f0 38 7a bc 7d f7 42 be f9 b2 01 bf fa f4 3a be
       -0.015272364 -0.19039722 -0.50663716 -0.18257514
000060 43 fc 0b bd 4d 46 f3 3d 99 74 28 3e 6d 78 f0 3c
       -0.034176122 0.11878643 0.16450728 0.029354298
000070 79 a3 84 3d aa 06 01 bf 0c 5a 7b bd 08 a1 d3 3e
       0.064764924 -0.50400794 -0.061365172 0.41333795
000080 ea a8 db 3e 20 0a b5 bd b5 2b 28 bd 66 48 a9 bd
       0.4290231 -0.08839822 -0.041057307 -0.08265762
000090 b5 49 a5 be b0 a5 2b 3d 28 bc c6 bd 3a 1f a2 3d
       -0.32282797 0.04190606 -0.09703857 0.07916112
0000a0 3a 20 d7 3d ec 2c ef 3c 6a 57 bc 3c db 93 cf bd
       0.105041936 0.029196225 0.022990901 -0.10135623
0000b0 38 2e be be 2d d9 e5 3d 60 91 84 3d c3 34 d3 3d
       -0.37144637 0.112230636 0.064730406 0.10312798

in_proj.bias f4 [12]
000000 fe 86 ec bd 99 95 95 3e 49 6b 81 bc c4 11 b5 3e
       -0.11549185 0.29215696 -0.015798228 0.35365117
000010 2c 82 79 3c 3a f5 87 bf 2d 57 2e 3d d0 a8 cb 3e
       0.015228789 -1.0621712 0.042563606 0.3977723
000020 e4 22 07 bd d5 a3 30 3a 91 d7 08 bf 7f 40 7a 3e
       -0.03299226 0.000673828 -0.5345393 0.24438666

hidden_layers.0.weight f4 [12, 12]
000000 5f ed ad be 0c a4 ad be 6b 1f c3 bc e7 3a 81 3d
       -0.33970162 -0.3391422 -0.023818692 0.06310063
000010 7e 04 af be 28 21 08 bf 24 14 83 be 2e b4 2a bf
       -0.34183115 -0.5317559 -0.25601304 -0.6668118
000020 c8 d5 a6 bd 63 c5 6b 3d b5 95 13 bd 51 25 a8 3a
       -0.08146244 0.05756129 -0.036031444 0.0012828504
000030 6c 52 21 be f7 b2 37 3e e1 a9 84 be b0 cd 9c bc
       -0.15754098 0.17939363 -0.25910857 -0.019141048
000040 23 27 fe bd 17 4e 00 3e 71 7c f6 3c 18 23 33 3d
       -0.124098085 0.12529789 0.030088635 0.04373464
000050 e7 04 7a 3d b0 70 70 be 24 43 a6 be f5 f4 0e 3d
       0.06103983 -0.23480487 -0.324731 0.034901578
000060 3a 4f 78 3e 53 e8 4d 3d 16 44 3f be 92 07 83 3d
       0.24248973 0.05027039 -0.18678316 0.06397928
000070 14 df 3b be 5a 42 d6 bd c8 e4 1d 3d 52 78 26 be
       -0.18346816 -0.10461874 0.03854826 -0.16256836
000080 12 12 d1 3e 21 b0 ab be 03 ce b3 bd ed 27 91 be
       0.408341 -0.33532813 -0.08779528 -0.28350773
000090 13 77 df 3e a2 3c 29 bf ca 38 0f bf dd 2e 2f be
       0.43645534 -0.66108143 -0.5594603 -0.1710772
0000a0 11 d9 89 be dd 4f 97 be 2c 36 97 be 19 f8 06 bf
       -0.2692342 -0.29553118 -0.29533517 -0.52722317
0000b0 f9 6f 09 be 92 77 2d be d6 67 c4 3c 60 1a e9 be
       -0.1342162 -0.16940144 0.023975294 -0.45527935
0000c0 2a ea 32 be 39 50 ec bd c6 41 a7 3e 07 db 66 3e
       -0.17472139 -0.11538739 0.3266737 0.2254449
0000d0 5f 4c 16 3e 12 79 92 bb c7 00 46 be 9b ac 12 3d
       0.14677571 -0.004469999 -0.19336234 0.03580914
0000e0 7f 0a 47 be 74 b0 05 3d 4e f4 80 3e b4 4e 20 3e
       -0.19437598 0.032638982 0.2518639 0.15655023
0000f0 1d be 30 bf 6b 1b 33 bc ae 08 35 bd 37 19 81 3d
       -0.6904009 -0.01093183 -0.04419773 0.063036375
000100 92 5f 3f be ab c5 ae be c9 69 1b 3e 22 6c 5b bd
       -0.18688801 -0.34135184 0.15177073 -0.05356992
000110 86 85 d8 3d b6 c3 97 be 97 56 71 be 7b 37 ac be
       0.105723426 -0.29641503 -0.23568188 -0.33636078
000120 2b 5d 03 be 32 a3 0c bd f0 80 73 3e be 67 e8 3c
       -0.1282851 -0.034335323 0.23779655 0.02836978
000130 6b 95 fe 3d 45 02 55 3c 0f 3b e6 3d 57 11 0e 3e
       0.12430843 0.013001029 0.11241733 0.13873802
000140 2d 47 b8 be 54 5a 68 3e 59 16 0d be db 94 a9 3e
       -0.35991803 0.22690707 -0.13778056 0.3312138
000150 7d 09 41 be 6f 85 7f 3d 36 50 55 bd 60 9c 8e 3d
       -0.18851276 0.06238311 -0.05207845 0.0696342
000160 ed 84 5a 3e d5 5d 0d be 89 bf b7 3d 97 39 80 bd
       0.2133977 -0.13805325 0.08972079 -0.062609844
000170 43 3f c5 3d 40 d0 60 be 47 60 8d be e3 02 cc bd
       0.09631207 -0.21954441 -0.27612516 -0.09961488
000180 16 7e c1 3e e9 f9 c7 be c3 80 d1 bd 48 e8 aa be
       0.37791508 -0.39057854 -0.102296375 -0.33380342
000190 63 75 8f bd e7 b8 96 3e da 54 2b 3d 17 89 a9 bd
       -0.070048116 0.29437944 0.041828968 -0.08278101
0001a0 e3 9a 8d be 60 1b be 3c 5c 84 1a be 2e db 97 bd
       -0.27657232 0.023206413 -0.15089554 -0.07414852
0001b0 3d 2a cf 3e 03 71 4f be 98 65 88 be 21 ff 47 3d
       0.40461913 -0.20257954 -0.2664001 0.048827294
0001c0 23 2a 11 be a5 65 3b be 6f b7 25 be 61 dc 17 bd
       -0.1417623 -0.18300493 -0.16183256 -0.037075404
0001d0 c4 88 9f 3e b4 19 ac bc fa cd 58 be 5a 61 3e be
       0.3115903 -0.02100835 -0.21172324 -0.18591824
0001e0 a1 16 2c be 3a 07 80 bd 89 35 40 be cf ae 30 be
       -0.16805507 -0.06251378 -0.18770422 -0.17254184
0001f0 ff 0d ad bd d6 d4 89 be 54 4f bd be 26 56 82 bc
       -0.08449935 -0.26920193 -0.36974585 -0.01591022
000200 1f a0 36 3e 16 2c 9b be 9c e8 53 3c 4b 07 0c bf
       0.17834519 -0.30307072 0.012933876 -0.5469863
000210 3f b5 cf be ae 12 51 be c8 ae 78 bc af 4a f1 be
       -0.40567967 -0.20417282 -0.01517839 -0.47127292
000220 b1 ae cf 3d c2 f7 10 bf d1 a4 d0 bd e6 db 92 3c
       0.101407416 -0.5662805 -0.10187686 0.017927121
000230 90 a1 7e 3e aa 26 9e bd aa 53 b9 bd 5a 99 20 be
       0.24866319 -0.07722218 -0.09049161 -0.15683499

hidden_layers.0.bias f4 [12]
000000 0f 82 cc be 57 aa 8a 3e 24 70 db 3e 02 9d d6 be
       -0.39942977 0.27083084 0.42858994 -0.41916662
000010 54 f5 c2 be ac b4 b8 3d 0f 2b 8c 3e 47 a3 62 3e
       -0.38077796 0.090188354 0.273766 0.22132598
000020 9c 7c 85 bf 1e 47 a6 be f7 52 5b 3e bb b3 9e be
       -1.0428653 -0.32476133 0.21418367 -0.30996498

out_proj.weight f4 [3, 12]
000000 5c 61 32 3e 97 d9 c6 3e b5 f1 e1 3d 69 70 f9 be
       0.17419952 0.38837883 0.1103243 -0.48718575
000010 4b 98 60 bd 22 27 ed bd 16 7d 12 be 36 c0 f0 bd
       -0.054832738 -0.115797296 -0.14305529 -0.11755411
000020 d8 0c 95 3e 9c ce ca 3c f7 ca eb 3d 21 b5 22 3e
       0.29111362 0.024756722 0.11513322 0.15889408
000030 fd f0 8d 3e ba a6 a8 3d fa 8d 2b 3e fc 17 85 be
       0.27722922 0.082349256 0.16753379 -0.2599486
000040 00 e5 a1 3d 3a 0a e6 bd e7 b5 36 be 87 0d bb 3e
       0.079050064 -0.11232419 -0.17842828 0.36533758
000050 63 f5 0f bd f0 fd 49 3c bb ff 89 3c 44 a8 25 be
       -0.03514613 0.01232861 0.016845575 -0.1617747
000060 a0 10 3f 3d 23 d6 fd bd fd 78 6b 3e c2 c9 51 be
       0.046646714 -0.12394359 0.22995372 -0.20487121
000070 07 2a 25 3e c7 f1 c6 3d 44 54 63 be bd cc 7a 3e
       0.16129313 0.09714084 -0.22200114 0.24492164
000080 a2 ee da 3d 33 6c 82 bd 09 9a fe bd 02 e0 bb be
       0.10690047 -0.063682936 -0.124317236 -0.36694342

out_proj.bias f4 [3]
000000 f2 82 50 3e 0a 4a b0 bc 6a e8 f4 bd
       0.20362452 -0.02151968 -0.11958392
